…
        (onestop_parallel_text_adv_int): Parameter containing: [torch.cuda.FloatTensor of size 64 (GPU 0)]
        (onestop_parallel_text_adv_ele): Parameter containing: [torch.cuda.FloatTensor of size 64 (GPU 0)]
        (onestop_parallel_text_ele_int): Parameter containing: [torch.cuda.FloatTensor of size 64 (GPU 0)]
        (onestop_parallel_text_ele_adv): Parameter containing: [torch.cuda.FloatTensor of size 64 (GPU 0)]
        (onestop_parallel_text_int_adv): Parameter containing: [torch.cuda.FloatTensor of size 64 (GPU 0)]
        (onestop_parallel_text_int_ele): Parameter containing: [torch.cuda.FloatTensor of size 64 (GPU 0)]
    )
  )
  (shared): Embedding(32128, 512)
  (encoder): T5Stack(
    (embed_tokens): Embedding(32128, 512)
    (block): ModuleList(
      (0): T5Block(
        (layer): ModuleList(
          (0): T5LayerSelfAttention(
            (SelfAttention): T5Attention(
              (q): Linear(in_features=512, out_features=512, bias=False)
              (k): Linear(in_features=512, out_features=512, bias=False)
              (v): Linear(in_features=512, out_features=512, bias=False)
              (o): Linear(in_features=512, out_features=512, bias=False)
              (relative_attention_bias): Embedding(32, 8)
            )
            (layer_hyper_net): MetaLayersAdapterController()
            (layer_norm): T5LayerNorm()
            (dropout): Dropout(p=0.1, inplace=False)
          )
          (1): T5LayerFF(
            (DenseReluDense): T5DenseReluDense(
              (wi): Linear(in_features=512, out_features=2048, bias=False)
              (wo): Linear(in_features=2048, out_features=512, bias=False)
              (dropout): Dropout(p=0.1, inplace=False)
            )
            (layer_hyper_net): MetaLayersAdapterController()
            (layer_norm): T5LayerNorm()
            (dropout): Dropout(p=0.1, inplace=False)
          )
        )
      )
      (1): T5Block(
        (layer): ModuleList(
          (0): T5LayerSelfAttention(
            (SelfAttention): T5Attention(
              (q): Linear(in_features=512, out_features=512, bias=False)
              (k): Linear(in_features=512, out_features=512, bias=False)
              (v): Linear(in_features=512, out_features=512, bias=False)
              (o): Linear(in_features=512, out_features=512, bias=False)
            )
            (layer_hyper_net): MetaLayersAdapterController()
            (layer_norm): T5LayerNorm()
            (dropout): Dropout(p=0.1, inplace=False)
          )
          (1): T5LayerFF(
            (DenseReluDense): T5DenseReluDense(
              (wi): Linear(in_features=512, out_features=2048, bias=False)
              (wo): Linear(in_features=2048, out_features=512, bias=False)
              (dropout): Dropout(p=0.1, inplace=False)
            )
            (layer_hyper_net): MetaLayersAdapterController()
            (layer_norm): T5LayerNorm()
            (dropout): Dropout(p=0.1, inplace=False)
          )
        )
      )
      (2): T5Block(
        (layer): ModuleList(
          (0): T5LayerSelfAttention(
            (SelfAttention): T5Attention(
              (q): Linear(in_features=512, out_features=512, bias=False)
              (k): Linear(in_features=512, out_features=512, bias=False)
              (v): Linear(in_features=512, out_features=512, bias=False)
              (o): Linear(in_features=512, out_features=512, bias=False)
            )
            (layer_hyper_net): MetaLayersAdapterController()
            (layer_norm): T5LayerNorm()
            (dropout): Dropout(p=0.1, inplace=False)
          )
          (1): T5LayerFF(
            (DenseReluDense): T5DenseReluDense(
              (wi): Linear(in_features=512, out_features=2048, bias=False)
              (wo): Linear(in_features=2048, out_features=512, bias=False)
              (dropout): Dropout(p=0.1, inplace=False)
            )
            (layer_hyper_net): MetaLayersAdapterController()
            (layer_norm): T5LayerNorm()
            (dropout): Dropout(p=0.1, inplace=False)
          )
        )
      )
      (3): T5Block(
        (layer): ModuleList(
          (0): T5LayerSelfAttention(
            (SelfAttention): T5Attention(
              (q): Linear(in_features=512, out_features=512, bias=False)
              (k): Linear(in_features=512, out_features=512, bias=False)
              (v): Linear(in_features=512, out_features=512, bias=False)
              (o): Linear(in_features=512, out_features=512, bias=False)
            )
            (layer_hyper_net): MetaLayersAdapterController()
            (layer_norm): T5LayerNorm()
            (dropout): Dropout(p=0.1, inplace=False)
          )
          (1): T5LayerFF(
            (DenseReluDense): T5DenseReluDense(
              (wi): Linear(in_features=512, out_features=2048, bias=False)
              (wo): Linear(in_features=2048, out_features=512, bias=False)
              (dropout): Dropout(p=0.1, inplace=False)
            )
            (layer_hyper_net): MetaLayersAdapterController()
            (layer_norm): T5LayerNorm()
            (dropout): Dropout(p=0.1, inplace=False)
          )
        )
      )
      (4): T5Block(
        (layer): ModuleList(
          (0): T5LayerSelfAttention(
            (SelfAttention): T5Attention(
              (q): Linear(in_features=512, out_features=512, bias=False)
              (k): Linear(in_features=512, out_features=512, bias=False)
              (v): Linear(in_features=512, out_features=512, bias=False)
              (o): Linear(in_features=512, out_features=512, bias=False)
            )
            (layer_hyper_net): MetaLayersAdapterController()
            (layer_norm): T5LayerNorm()
            (dropout): Dropout(p=0.1, inplace=False)
          )
          (1): T5LayerFF(
            (DenseReluDense): T5DenseReluDense(
              (wi): Linear(in_features=512, out_features=2048, bias=False)
              (wo): Linear(in_features=2048, out_features=512, bias=False)
              (dropout): Dropout(p=0.1, inplace=False)
            )
            (layer_hyper_net): MetaLayersAdapterController()
            (layer_norm): T5LayerNorm()
            (dropout): Dropout(p=0.1, inplace=False)
          )
        )
      )
      (5): T5Block(
        (layer): ModuleList(
          (0): T5LayerSelfAttention(
            (SelfAttention): T5Attention(
              (q): Linear(in_features=512, out_features=512, bias=False)
              (k): Linear(in_features=512, out_features=512, bias=False)
              (v): Linear(in_features=512, out_features=512, bias=False)
              (o): Linear(in_features=512, out_features=512, bias=False)
            )
            (layer_hyper_net): MetaLayersAdapterController()
            (layer_norm): T5LayerNorm()
            (dropout): Dropout(p=0.1, inplace=False)
          )
          (1): T5LayerFF(
            (DenseReluDense): T5DenseReluDense(
              (wi): Linear(in_features=512, out_features=2048, bias=False)
              (wo): Linear(in_features=2048, out_features=512, bias=False)
              (dropout): Dropout(p=0.1, inplace=False)
            )
            (layer_hyper_net): MetaLayersAdapterController()
            (layer_norm): T5LayerNorm()
            (dropout): Dropout(p=0.1, inplace=False)
          )
        )
      )
    )
    (adapter_layers_hyper_net): AdapterLayersOneHyperNetController(
      (layer_id_embeddings): Embedding(6, 64)
      (adapters_block_type): Embedding(2, 64)
      (task_hypernet): TaskHyperNet(
        (task_embeding_generator): Sequential(
          (0): Linear(in_features=192, out_features=128, bias=True)
          (1): ReLU()
          (2): Linear(in_features=128, out_features=128, bias=True)
        )
      )
      (LayerNorm): LayerNorm((128,), eps=1e-06, elementwise_affine=True)
      (up_sampler_hyper_net): AdapterLayersHyperNet(
        (weight_generator): Sequential(
          (0): Linear(in_features=128, out_features=8192, bias=True)
        )
        (bias_generator): Sequential(
          (0): Linear(in_features=128, out_features=512, bias=True)
        )
      )
      (down_sampler_hyper_net): AdapterLayersHyperNet(
        (weight_generator): Sequential(
          (0): Linear(in_features=128, out_features=8192, bias=True)
        )
        (bias_generator): Sequential(
          (0): Linear(in_features=128, out_features=16, bias=True)
        )
      )
      (post_layernorm_hypernet): LayerNormHyperNet(
        (weight_generator): Linear(in_features=128, out_features=512, bias=True)
        (bias_generator): Linear(in_features=128, out_features=512, bias=True)
      )
    )
    (final_layer_norm): T5LayerNorm()
    (dropout): Dropout(p=0.1, inplace=False)
  )
  (decoder): T5Stack(
    (embed_tokens): Embedding(32128, 512)
    (block): ModuleList(
      (0): T5Block(
        (layer): ModuleList(
          (0): T5LayerSelfAttention(
            (SelfAttention): T5Attention(
              (q): Linear(in_features=512, out_features=512, bias=False)
              (k): Linear(in_features=512, out_features=512, bias=False)
              (v): Linear(in_features=512, out_features=512, bias=False)
              (o): Linear(in_features=512, out_features=512, bias=False)
              (relative_attention_bias): Embedding(32, 8)
            )
            (layer_hyper_net): MetaLayersAdapterController()
            (layer_norm): T5LayerNorm()
            (dropout): Dropout(p=0.1, inplace=False)
          )
          (1): T5LayerCrossAttention(
            (EncDecAttention): T5Attention(
              (q): Linear(in_features=512, out_features=512, bias=False)
              (k): Linear(in_features=512, out_features=512, bias=False)
              (v): Linear(in_features=512, out_features=512, bias=False)
              (o): Linear(in_features=512, out_features=512, bias=False)
              (relative_attention_bias): Embedding(32, 8)
            )
            (layer_norm): T5LayerNorm()
            (dropout): Dropout(p=0.1, inplace=False)
          )
          (2): T5LayerFF(
            (DenseReluDense): T5DenseReluDense(
              (wi): Linear(in_features=512, out_features=2048, bias=False)
              (wo): Linear(in_features=2048, out_features=512, bias=False)
              (dropout): Dropout(p=0.1, inplace=False)
            )
            (layer_hyper_net): MetaLayersAdapterController()
            (layer_norm): T5LayerNorm()
            (dropout): Dropout(p=0.1, inplace=False)
          )
        )
      )
      (1): T5Block(
        (layer): ModuleList(
          (0): T5LayerSelfAttention(
            (SelfAttention): T5Attention(
              (q): Linear(in_features=512, out_features=512, bias=False)
              (k): Linear(in_features=512, out_features=512, bias=False)
              (v): Linear(in_features=512, out_features=512, bias=False)
              (o): Linear(in_features=512, out_features=512, bias=False)
            )
            (layer_hyper_net): MetaLayersAdapterController()
            (layer_norm): T5LayerNorm()
            (dropout): Dropout(p=0.1, inplace=False)
          )
          (1): T5LayerCrossAttention(
            (EncDecAttention): T5Attention(
              (q): Linear(in_features=512, out_features=512, bias=False)
              (k): Linear(in_features=512, out_features=512, bias=False)
              (v): Linear(in_features=512, out_features=512, bias=False)
              (o): Linear(in_features=512, out_features=512, bias=False)
            )
            (layer_norm): T5LayerNorm()
            (dropout): Dropout(p=0.1, inplace=False)
          )
          (2): T5LayerFF(
            (DenseReluDense): T5DenseReluDense(
              (wi): Linear(in_features=512, out_features=2048, bias=False)
              (wo): Linear(in_features=2048, out_features=512, bias=False)
              (dropout): Dropout(p=0.1, inplace=False)
            )
            (layer_hyper_net): MetaLayersAdapterController()
            (layer_norm): T5LayerNorm()
            (dropout): Dropout(p=0.1, inplace=False)
          )
        )
      )
      (2): T5Block(
        (layer): ModuleList(
          (0): T5LayerSelfAttention(
            (SelfAttention): T5Attention(
              (q): Linear(in_features=512, out_features=512, bias=False)
              (k): Linear(in_features=512, out_features=512, bias=False)
              (v): Linear(in_features=512, out_features=512, bias=False)
              (o): Linear(in_features=512, out_features=512, bias=False)
            )
            (layer_hyper_net): MetaLayersAdapterController()
            (layer_norm): T5LayerNorm()
            (dropout): Dropout(p=0.1, inplace=False)
          )
          (1): T5LayerCrossAttention(
            (EncDecAttention): T5Attention(
              (q): Linear(in_features=512, out_features=512, bias=False)
              (k): Linear(in_features=512, out_features=512, bias=False)
              (v): Linear(in_features=512, out_features=512, bias=False)
              (o): Linear(in_features=512, out_features=512, bias=False)
            )
            (layer_norm): T5LayerNorm()
            (dropout): Dropout(p=0.1, inplace=False)
          )
          (2): T5LayerFF(
            (DenseReluDense): T5DenseReluDense(
              (wi): Linear(in_features=512, out_features=2048, bias=False)
              (wo): Linear(in_features=2048, out_features=512, bias=False)
              (dropout): Dropout(p=0.1, inplace=False)
            )
            (layer_hyper_net): MetaLayersAdapterController()
            (layer_norm): T5LayerNorm()
            (dropout): Dropout(p=0.1, inplace=False)
          )
        )
      )
      (3): T5Block(
        (layer): ModuleList(
          (0): T5LayerSelfAttention(
            (SelfAttention): T5Attention(
              (q): Linear(in_features=512, out_features=512, bias=False)
              (k): Linear(in_features=512, out_features=512, bias=False)
              (v): Linear(in_features=512, out_features=512, bias=False)
              (o): Linear(in_features=512, out_features=512, bias=False)
            )
            (layer_hyper_net): MetaLayersAdapterController()
            (layer_norm): T5LayerNorm()
            (dropout): Dropout(p=0.1, inplace=False)
          )
          (1): T5LayerCrossAttention(
            (EncDecAttention): T5Attention(
              (q): Linear(in_features=512, out_features=512, bias=False)
              (k): Linear(in_features=512, out_features=512, bias=False)
              (v): Linear(in_features=512, out_features=512, bias=False)
              (o): Linear(in_features=512, out_features=512, bias=False)
            )
            (layer_norm): T5LayerNorm()
            (dropout): Dropout(p=0.1, inplace=False)
          )
          (2): T5LayerFF(
            (DenseReluDense): T5DenseReluDense(
              (wi): Linear(in_features=512, out_features=2048, bias=False)
              (wo): Linear(in_features=2048, out_features=512, bias=False)
              (dropout): Dropout(p=0.1, inplace=False)
            )
            (layer_hyper_net): MetaLayersAdapterController()
            (layer_norm): T5LayerNorm()
            (dropout): Dropout(p=0.1, inplace=False)
          )
        )
      )
      (4): T5Block(
        (layer): ModuleList(
          (0): T5LayerSelfAttention(
            (SelfAttention): T5Attention(
              (q): Linear(in_features=512, out_features=512, bias=False)
              (k): Linear(in_features=512, out_features=512, bias=False)
              (v): Linear(in_features=512, out_features=512, bias=False)
              (o): Linear(in_features=512, out_features=512, bias=False)
            )
            (layer_hyper_net): MetaLayersAdapterController()
            (layer_norm): T5LayerNorm()
            (dropout): Dropout(p=0.1, inplace=False)
          )
          (1): T5LayerCrossAttention(
            (EncDecAttention): T5Attention(
              (q): Linear(in_features=512, out_features=512, bias=False)
              (k): Linear(in_features=512, out_features=512, bias=False)
              (v): Linear(in_features=512, out_features=512, bias=False)
              (o): Linear(in_features=512, out_features=512, bias=False)
            )
            (layer_norm): T5LayerNorm()
            (dropout): Dropout(p=0.1, inplace=False)
          )
          (2): T5LayerFF(
            (DenseReluDense): T5DenseReluDense(
              (wi): Linear(in_features=512, out_features=2048, bias=False)
              (wo): Linear(in_features=2048, out_features=512, bias=False)
              (dropout): Dropout(p=0.1, inplace=False)
            )
            (layer_hyper_net): MetaLayersAdapterController()
            (layer_norm): T5LayerNorm()
            (dropout): Dropout(p=0.1, inplace=False)
          )
        )
      )
      (5): T5Block(
        (layer): ModuleList(
          (0): T5LayerSelfAttention(
            (SelfAttention): T5Attention(
              (q): Linear(in_features=512, out_features=512, bias=False)
              (k): Linear(in_features=512, out_features=512, bias=False)
              (v): Linear(in_features=512, out_features=512, bias=False)
              (o): Linear(in_features=512, out_features=512, bias=False)
            )
            (layer_hyper_net): MetaLayersAdapterController()
            (layer_norm): T5LayerNorm()
            (dropout): Dropout(p=0.1, inplace=False)
          )
          (1): T5LayerCrossAttention(
            (EncDecAttention): T5Attention(
              (q): Linear(in_features=512, out_features=512, bias=False)
              (k): Linear(in_features=512, out_features=512, bias=False)
              (v): Linear(in_features=512, out_features=512, bias=False)
              (o): Linear(in_features=512, out_features=512, bias=False)
            )
            (layer_norm): T5LayerNorm()
            (dropout): Dropout(p=0.1, inplace=False)
          )
          (2): T5LayerFF(
            (DenseReluDense): T5DenseReluDense(
              (wi): Linear(in_features=512, out_features=2048, bias=False)
              (wo): Linear(in_features=2048, out_features=512, bias=False)
              (dropout): Dropout(p=0.1, inplace=False)
            )
            (layer_hyper_net): MetaLayersAdapterController()
            (layer_norm): T5LayerNorm()
            (dropout): Dropout(p=0.1, inplace=False)
          )
        )
      )
    )
    (adapter_layers_hyper_net): AdapterLayersOneHyperNetController(
      (layer_id_embeddings): Embedding(6, 64)
      (adapters_block_type): Embedding(2, 64)
      (task_hypernet): TaskHyperNet(
        (task_embeding_generator): Sequential(
          (0): Linear(in_features=192, out_features=128, bias=True)
          (1): ReLU()
          (2): Linear(in_features=128, out_features=128, bias=True)
        )
      )
      (LayerNorm): LayerNorm((128,), eps=1e-06, elementwise_affine=True)
      (up_sampler_hyper_net): AdapterLayersHyperNet(
        (weight_generator): Sequential(
          (0): Linear(in_features=128, out_features=8192, bias=True)
        )
        (bias_generator): Sequential(
          (0): Linear(in_features=128, out_features=512, bias=True)
        )
      )
      (down_sampler_hyper_net): AdapterLayersHyperNet(
        (weight_generator): Sequential(
          (0): Linear(in_features=128, out_features=8192, bias=True)
        )
        (bias_generator): Sequential(
          (0): Linear(in_features=128, out_features=16, bias=True)
        )
      )
      (post_layernorm_hypernet): LayerNormHyperNet(
        (weight_generator): Linear(in_features=128, out_features=512, bias=True)
        (bias_generator): Linear(in_features=128, out_features=512, bias=True)
      )
    )
    (final_layer_norm): T5LayerNorm()
    (dropout): Dropout(p=0.1, inplace=False)
  )
  (lm_head): Linear(in_features=512, out_features=32128, bias=False)
)
06/12/2023 15:04:28 - INFO - __main__ -   config (type: <class 'third_party.models.configuration_t5.T5Config'>) :
06/12/2023 15:04:28 - INFO - __main__ -   T5Config {
  "_name_or_path": "t5-small",
  "architectures": [
    "T5ForConditionalGeneration"
  ],
  "d_ff": 2048,
  "d_kv": 64,
  "d_model": 512,
  "decoder_start_token_id": 0,
  "dropout_rate": 0.1,
…
