…
classifier_weights=False, optimize_from_scratch=False, optimize_from_scratch_with_loading_model=False, split_validation_test=True, print_num_parameters=False, compute_memory=False, compute_time=False, include_inputs_for_metrics=True)
06/08/2023 20:40:34 - WARNING - __main__ -   model path loaded from : t5-small
06/08/2023 20:40:37 - INFO - __main__ -   BEFORE THE TRAINER CLASS INITIALISATION
06/08/2023 20:40:37 - INFO - __main__ -   model (type: <class 'third_party.models.modeling_t5.T5ForConditionalGeneration'>) :
06/08/2023 20:40:37 - INFO - __main__ -   T5ForConditionalGeneration(
  (shared): Embedding(32128, 512)
  (encoder): T5Stack(
    (embed_tokens): Embedding(32128, 512)
    (block): ModuleList(
      (0): T5Block(
        (layer): ModuleList(
          (0): T5LayerSelfAttention(
            (SelfAttention): T5Attention(
              (q): Linear(in_features=512, out_features=512, bias=False)
              (k): Linear(in_features=512, out_features=512, bias=False)
              (v): Linear(in_features=512, out_features=512, bias=False)
              (o): Linear(in_features=512, out_features=512, bias=False)
              (relative_attention_bias): Embedding(32, 8)
            )
            (adapter_controller): AdapterController(
              (adapters): ModuleDict(
                (onestop_parallel_sentence_adv_int): Adapter(
                  (activation): Activations()
                  (down_sampler): Linear(in_features=512, out_features=16, bias=True)
                  (up_sampler): Linear(in_features=16, out_features=512, bias=True)
                )
                (onestop_parallel_sentence_adv_ele): Adapter(
                  (activation): Activations()
                  (down_sampler): Linear(in_features=512, out_features=16, bias=True)
                  (up_sampler): Linear(in_features=16, out_features=512, bias=True)
                )
                (onestop_parallel_sentence_ele_int): Adapter(
                  (activation): Activations()
                  (down_sampler): Linear(in_features=512, out_features=16, bias=True)
                  (up_sampler): Linear(in_features=16, out_features=512, bias=True)
                )
                (onestop_parallel_sentence_ele_adv): Adapter(
                  (activation): Activations()
                  (down_sampler): Linear(in_features=512, out_features=16, bias=True)
                  (up_sampler): Linear(in_features=16, out_features=512, bias=True)
                )
                (onestop_parallel_sentence_int_adv): Adapter(
                  (activation): Activations()
                  (down_sampler): Linear(in_features=512, out_features=16, bias=True)
                  (up_sampler): Linear(in_features=16, out_features=512, bias=True)
                )
                (onestop_parallel_sentence_int_ele): Adapter(
                  (activation): Activations()
                  (down_sampler): Linear(in_features=512, out_features=16, bias=True)
                  (up_sampler): Linear(in_features=16, out_features=512, bias=True)
                )
              )
              (post_layer_norm): LayerNorm((512,), eps=1e-05, elementwise_affine=True)
            )
            (layer_norm): T5LayerNorm()
            (dropout): Dropout(p=0.1, inplace=False)
          )
          (1): T5LayerFF(
            (DenseReluDense): T5DenseReluDense(
              (wi): Linear(in_features=512, out_features=2048, bias=False)
              (wo): Linear(in_features=2048, out_features=512, bias=False)
              (dropout): Dropout(p=0.1, inplace=False)
            )
            (adapter_controller): AdapterController(
              (adapters): ModuleDict(
                (onestop_parallel_sentence_adv_int): Adapter(
                  (activation): Activations()
                  (down_sampler): Linear(in_features=512, out_features=16, bias=True)
                  (up_sampler): Linear(in_features=16, out_features=512, bias=True)
                )
                (onestop_parallel_sentence_adv_ele): Adapter(
                  (activation): Activations()
                  (down_sampler): Linear(in_features=512, out_features=16, bias=True)
                  (up_sampler): Linear(in_features=16, out_features=512, bias=True)
                )
                (onestop_parallel_sentence_ele_int): Adapter(
                  (activation): Activations()
                  (down_sampler): Linear(in_features=512, out_features=16, bias=True)
                  (up_sampler): Linear(in_features=16, out_features=512, bias=True)
                )
                (onestop_parallel_sentence_ele_adv): Adapter(
                  (activation): Activations()
                  (down_sampler): Linear(in_features=512, out_features=16, bias=True)
                  (up_sampler): Linear(in_features=16, out_features=512, bias=True)
                )
                (onestop_parallel_sentence_int_adv): Adapter(
                  (activation): Activations()
                  (down_sampler): Linear(in_features=512, out_features=16, bias=True)
                  (up_sampler): Linear(in_features=16, out_features=512, bias=True)
                )
                (onestop_parallel_sentence_int_ele): Adapter(
                  (activation): Activations()
                  (down_sampler): Linear(in_features=512, out_features=16, bias=True)
                  (up_sampler): Linear(in_features=16, out_features=512, bias=True)
                )
              )
              (post_layer_norm): LayerNorm((512,), eps=1e-05, elementwise_affine=True)
            )
            (layer_norm): T5LayerNorm()
            (dropout): Dropout(p=0.1, inplace=False)
          )
        )
      )
      (1): T5Block(
        (layer): ModuleList(
          (0): T5LayerSelfAttention(
            (SelfAttention): T5Attention(
              (q): Linear(in_features=512, out_features=512, bias=False)
              (k): Linear(in_features=512, out_features=512, bias=False)
              (v): Linear(in_features=512, out_features=512, bias=False)
              (o): Linear(in_features=512, out_features=512, bias=False)
            )
            (adapter_controller): AdapterController(
              (adapters): ModuleDict(
                (onestop_parallel_sentence_adv_int): Adapter(
                  (activation): Activations()
                  (down_sampler): Linear(in_features=512, out_features=16, bias=True)
                  (up_sampler): Linear(in_features=16, out_features=512, bias=True)
                )
                (onestop_parallel_sentence_adv_ele): Adapter(
                  (activation): Activations()
                  (down_sampler): Linear(in_features=512, out_features=16, bias=True)
                  (up_sampler): Linear(in_features=16, out_features=512, bias=True)
                )
                (onestop_parallel_sentence_ele_int): Adapter(
                  (activation): Activations()
                  (down_sampler): Linear(in_features=512, out_features=16, bias=True)
                  (up_sampler): Linear(in_features=16, out_features=512, bias=True)
                )
                (onestop_parallel_sentence_ele_adv): Adapter(
                  (activation): Activations()
                  (down_sampler): Linear(in_features=512, out_features=16, bias=True)
                  (up_sampler): Linear(in_features=16, out_features=512, bias=True)
                )
                (onestop_parallel_sentence_int_adv): Adapter(
                  (activation): Activations()
                  (down_sampler): Linear(in_features=512, out_features=16, bias=True)
                  (up_sampler): Linear(in_features=16, out_features=512, bias=True)
                )
                (onestop_parallel_sentence_int_ele): Adapter(
                  (activation): Activations()
                  (down_sampler): Linear(in_features=512, out_features=16, bias=True)
                  (up_sampler): Linear(in_features=16, out_features=512, bias=True)
                )
              )
              (post_layer_norm): LayerNorm((512,), eps=1e-05, elementwise_affine=True)
            )
            (layer_norm): T5LayerNorm()
            (dropout): Dropout(p=0.1, inplace=False)
          )
          (1): T5LayerFF(
            (DenseReluDense): T5DenseReluDense(
              (wi): Linear(in_features=512, out_features=2048, bias=False)
              (wo): Linear(in_features=2048, out_features=512, bias=False)
              (dropout): Dropout(p=0.1, inplace=False)
            )
            (adapter_controller): AdapterController(
              (adapters): ModuleDict(
                (onestop_parallel_sentence_adv_int): Adapter(
                  (activation): Activations()
                  (down_sampler): Linear(in_features=512, out_features=16, bias=True)
                  (up_sampler): Linear(in_features=16, out_features=512, bias=True)
                )
                (onestop_parallel_sentence_adv_ele): Adapter(
                  (activation): Activations()
                  (down_sampler): Linear(in_features=512, out_features=16, bias=True)
                  (up_sampler): Linear(in_features=16, out_features=512, bias=True)
                )
                (onestop_parallel_sentence_ele_int): Adapter(
                  (activation): Activations()
                  (down_sampler): Linear(in_features=512, out_features=16, bias=True)
                  (up_sampler): Linear(in_features=16, out_features=512, bias=True)
                )
                (onestop_parallel_sentence_ele_adv): Adapter(
                  (activation): Activations()
                  (down_sampler): Linear(in_features=512, out_features=16, bias=True)
                  (up_sampler): Linear(in_features=16, out_features=512, bias=True)
                )
                (onestop_parallel_sentence_int_adv): Adapter(
                  (activation): Activations()
                  (down_sampler): Linear(in_features=512, out_features=16, bias=True)
                  (up_sampler): Linear(in_features=16, out_features=512, bias=True)
                )
                (onestop_parallel_sentence_int_ele): Adapter(
                  (activation): Activations()
                  (down_sampler): Linear(in_features=512, out_features=16, bias=True)
                  (up_sampler): Linear(in_features=16, out_features=512, bias=True)
                )
              )
              (post_layer_norm): LayerNorm((512,), eps=1e-05, elementwise_affine=True)
            )
            (layer_norm): T5LayerNorm()
            (dropout): Dropout(p=0.1, inplace=False)
          )
        )
      )
      (2): T5Block(
        (layer): ModuleList(
          (0): T5LayerSelfAttention(
            (SelfAttention): T5Attention(
              (q): Linear(in_features=512, out_features=512, bias=False)
              (k): Linear(in_features=512, out_features=512, bias=False)
              (v): Linear(in_features=512, out_features=512, bias=False)
              (o): Linear(in_features=512, out_features=512, bias=False)
            )
            (adapter_controller): AdapterController(
              (adapters): ModuleDict(
                (onestop_parallel_sentence_adv_int): Adapter(
                  (activation): Activations()
                  (down_sampler): Linear(in_features=512, out_features=16, bias=True)
                  (up_sampler): Linear(in_features=16, out_features=512, bias=True)
                )
                (onestop_parallel_sentence_adv_ele): Adapter(
                  (activation): Activations()
                  (down_sampler): Linear(in_features=512, out_features=16, bias=True)
                  (up_sampler): Linear(in_features=16, out_features=512, bias=True)
                )
                (onestop_parallel_sentence_ele_int): Adapter(
                  (activation): Activations()
                  (down_sampler): Linear(in_features=512, out_features=16, bias=True)
                  (up_sampler): Linear(in_features=16, out_features=512, bias=True)
                )
                (onestop_parallel_sentence_ele_adv): Adapter(
                  (activation): Activations()
                  (down_sampler): Linear(in_features=512, out_features=16, bias=True)
                  (up_sampler): Linear(in_features=16, out_features=512, bias=True)
                )
                (onestop_parallel_sentence_int_adv): Adapter(
                  (activation): Activations()
                  (down_sampler): Linear(in_features=512, out_features=16, bias=True)
                  (up_sampler): Linear(in_features=16, out_features=512, bias=True)
                )
                (onestop_parallel_sentence_int_ele): Adapter(
                  (activation): Activations()
                  (down_sampler): Linear(in_features=512, out_features=16, bias=True)
                  (up_sampler): Linear(in_features=16, out_features=512, bias=True)
                )
              )
              (post_layer_norm): LayerNorm((512,), eps=1e-05, elementwise_affine=True)
            )
            (layer_norm): T5LayerNorm()
            (dropout): Dropout(p=0.1, inplace=False)
          )
          (1): T5LayerFF(
            (DenseReluDense): T5DenseReluDense(
              (wi): Linear(in_features=512, out_features=2048, bias=False)
              (wo): Linear(in_features=2048, out_features=512, bias=False)
              (dropout): Dropout(p=0.1, inplace=False)
            )
            (adapter_controller): AdapterController(
              (adapters): ModuleDict(
                (onestop_parallel_sentence_adv_int): Adapter(
                  (activation): Activations()
                  (down_sampler): Linear(in_features=512, out_features=16, bias=True)
                  (up_sampler): Linear(in_features=16, out_features=512, bias=True)
                )
                (onestop_parallel_sentence_adv_ele): Adapter(
                  (activation): Activations()
                  (down_sampler): Linear(in_features=512, out_features=16, bias=True)
                  (up_sampler): Linear(in_features=16, out_features=512, bias=True)
                )
                (onestop_parallel_sentence_ele_int): Adapter(
                  (activation): Activations()
                  (down_sampler): Linear(in_features=512, out_features=16, bias=True)
                  (up_sampler): Linear(in_features=16, out_features=512, bias=True)
                )
                (onestop_parallel_sentence_ele_adv): Adapter(
                  (activation): Activations()
                  (down_sampler): Linear(in_features=512, out_features=16, bias=True)
                  (up_sampler): Linear(in_features=16, out_features=512, bias=True)
                )
                (onestop_parallel_sentence_int_adv): Adapter(
                  (activation): Activations()
                  (down_sampler): Linear(in_features=512, out_features=16, bias=True)
                  (up_sampler): Linear(in_features=16, out_features=512, bias=True)
                )
                (onestop_parallel_sentence_int_ele): Adapter(
                  (activation): Activations()
                  (down_sampler): Linear(in_features=512, out_features=16, bias=True)
                  (up_sampler): Linear(in_features=16, out_features=512, bias=True)
                )
              )
              (post_layer_norm): LayerNorm((512,), eps=1e-05, elementwise_affine=True)
            )
            (layer_norm): T5LayerNorm()
            (dropout): Dropout(p=0.1, inplace=False)
          )
        )
      )
      (3): T5Block(
        (layer): ModuleList(
          (0): T5LayerSelfAttention(
            (SelfAttention): T5Attention(
              (q): Linear(in_features=512, out_features=512, bias=False)
              (k): Linear(in_features=512, out_features=512, bias=False)
              (v): Linear(in_features=512, out_features=512, bias=False)
              (o): Linear(in_features=512, out_features=512, bias=False)
            )
            (adapter_controller): AdapterController(
              (adapters): ModuleDict(
                (onestop_parallel_sentence_adv_int): Adapter(
                  (activation): Activations()
                  (down_sampler): Linear(in_features=512, out_features=16, bias=True)
                  (up_sampler): Linear(in_features=16, out_features=512, bias=True)
                )
                (onestop_parallel_sentence_adv_ele): Adapter(
                  (activation): Activations()
                  (down_sampler): Linear(in_features=512, out_features=16, bias=True)
                  (up_sampler): Linear(in_features=16, out_features=512, bias=True)
                )
                (onestop_parallel_sentence_ele_int): Adapter(
                  (activation): Activations()
                  (down_sampler): Linear(in_features=512, out_features=16, bias=True)
                  (up_sampler): Linear(in_features=16, out_features=512, bias=True)
                )
                (onestop_parallel_sentence_ele_adv): Adapter(
                  (activation): Activations()
                  (down_sampler): Linear(in_features=512, out_features=16, bias=True)
                  (up_sampler): Linear(in_features=16, out_features=512, bias=True)
                )
                (onestop_parallel_sentence_int_adv): Adapter(
                  (activation): Activations()
                  (down_sampler): Linear(in_features=512, out_features=16, bias=True)
                  (up_sampler): Linear(in_features=16, out_features=512, bias=True)
                )
                (onestop_parallel_sentence_int_ele): Adapter(
                  (activation): Activations()
                  (down_sampler): Linear(in_features=512, out_features=16, bias=True)
                  (up_sampler): Linear(in_features=16, out_features=512, bias=True)
                )
              )
              (post_layer_norm): LayerNorm((512,), eps=1e-05, elementwise_affine=True)
            )
            (layer_norm): T5LayerNorm()
            (dropout): Dropout(p=0.1, inplace=False)
          )
          (1): T5LayerFF(
            (DenseReluDense): T5DenseReluDense(
              (wi): Linear(in_features=512, out_features=2048, bias=False)
              (wo): Linear(in_features=2048, out_features=512, bias=False)
              (dropout): Dropout(p=0.1, inplace=False)
            )
            (adapter_controller): AdapterController(
              (adapters): ModuleDict(
                (onestop_parallel_sentence_adv_int): Adapter(
                  (activation): Activations()
                  (down_sampler): Linear(in_features=512, out_features=16, bias=True)
                  (up_sampler): Linear(in_features=16, out_features=512, bias=True)
                )
                (onestop_parallel_sentence_adv_ele): Adapter(
                  (activation): Activations()
                  (down_sampler): Linear(in_features=512, out_features=16, bias=True)
                  (up_sampler): Linear(in_features=16, out_features=512, bias=True)
                )
                (onestop_parallel_sentence_ele_int): Adapter(
                  (activation): Activations()
                  (down_sampler): Linear(in_features=512, out_features=16, bias=True)
                  (up_sampler): Linear(in_features=16, out_features=512, bias=True)
                )
                (onestop_parallel_sentence_ele_adv): Adapter(
                  (activation): Activations()
                  (down_sampler): Linear(in_features=512, out_features=16, bias=True)
                  (up_sampler): Linear(in_features=16, out_features=512, bias=True)
                )
                (onestop_parallel_sentence_int_adv): Adapter(
                  (activation): Activations()
                  (down_sampler): Linear(in_features=512, out_features=16, bias=True)
                  (up_sampler): Linear(in_features=16, out_features=512, bias=True)
                )
                (onestop_parallel_sentence_int_ele): Adapter(
                  (activation): Activations()
                  (down_sampler): Linear(in_features=512, out_features=16, bias=True)
                  (up_sampler): Linear(in_features=16, out_features=512, bias=True)
                )
              )
              (post_layer_norm): LayerNorm((512,), eps=1e-05, elementwise_affine=True)
            )
            (layer_norm): T5LayerNorm()
            (dropout): Dropout(p=0.1, inplace=False)
          )
        )
      )
      (4): T5Block(
        (layer): ModuleList(
          (0): T5LayerSelfAttention(
            (SelfAttention): T5Attention(
              (q): Linear(in_features=512, out_features=512, bias=False)
              (k): Linear(in_features=512, out_features=512, bias=False)
              (v): Linear(in_features=512, out_features=512, bias=False)
              (o): Linear(in_features=512, out_features=512, bias=False)
            )
            (adapter_controller): AdapterController(
              (adapters): ModuleDict(
                (onestop_parallel_sentence_adv_int): Adapter(
                  (activation): Activations()
                  (down_sampler): Linear(in_features=512, out_features=16, bias=True)
                  (up_sampler): Linear(in_features=16, out_features=512, bias=True)
                )
                (onestop_parallel_sentence_adv_ele): Adapter(
                  (activation): Activations()
                  (down_sampler): Linear(in_features=512, out_features=16, bias=True)
                  (up_sampler): Linear(in_features=16, out_features=512, bias=True)
                )
                (onestop_parallel_sentence_ele_int): Adapter(
                  (activation): Activations()
                  (down_sampler): Linear(in_features=512, out_features=16, bias=True)
                  (up_sampler): Linear(in_features=16, out_features=512, bias=True)
                )
                (onestop_parallel_sentence_ele_adv): Adapter(
                  (activation): Activations()
                  (down_sampler): Linear(in_features=512, out_features=16, bias=True)
                  (up_sampler): Linear(in_features=16, out_features=512, bias=True)
                )
                (onestop_parallel_sentence_int_adv): Adapter(
                  (activation): Activations()
                  (down_sampler): Linear(in_features=512, out_features=16, bias=True)
                  (up_sampler): Linear(in_features=16, out_features=512, bias=True)
                )
                (onestop_parallel_sentence_int_ele): Adapter(
                  (activation): Activations()
                  (down_sampler): Linear(in_features=512, out_features=16, bias=True)
                  (up_sampler): Linear(in_features=16, out_features=512, bias=True)
                )
              )
              (post_layer_norm): LayerNorm((512,), eps=1e-05, elementwise_affine=True)
            )
            (layer_norm): T5LayerNorm()
            (dropout): Dropout(p=0.1, inplace=False)
          )
          (1): T5LayerFF(
            (DenseReluDense): T5DenseReluDense(
              (wi): Linear(in_features=512, out_features=2048, bias=False)
              (wo): Linear(in_features=2048, out_features=512, bias=False)
              (dropout): Dropout(p=0.1, inplace=False)
            )
            (adapter_controller): AdapterController(
              (adapters): ModuleDict(
                (onestop_parallel_sentence_adv_int): Adapter(
                  (activation): Activations()
                  (down_sampler): Linear(in_features=512, out_features=16, bias=True)
                  (up_sampler): Linear(in_features=16, out_features=512, bias=True)
                )
                (onestop_parallel_sentence_adv_ele): Adapter(
                  (activation): Activations()
                  (down_sampler): Linear(in_features=512, out_features=16, bias=True)
                  (up_sampler): Linear(in_features=16, out_features=512, bias=True)
                )
                (onestop_parallel_sentence_ele_int): Adapter(
                  (activation): Activations()
                  (down_sampler): Linear(in_features=512, out_features=16, bias=True)
                  (up_sampler): Linear(in_features=16, out_features=512, bias=True)
                )
                (onestop_parallel_sentence_ele_adv): Adapter(
                  (activation): Activations()
                  (down_sampler): Linear(in_features=512, out_features=16, bias=True)
                  (up_sampler): Linear(in_features=16, out_features=512, bias=True)
                )
                (onestop_parallel_sentence_int_adv): Adapter(
                  (activation): Activations()
                  (down_sampler): Linear(in_features=512, out_features=16, bias=True)
                  (up_sampler): Linear(in_features=16, out_features=512, bias=True)
                )
                (onestop_parallel_sentence_int_ele): Adapter(
                  (activation): Activations()
                  (down_sampler): Linear(in_features=512, out_features=16, bias=True)
                  (up_sampler): Linear(in_features=16, out_features=512, bias=True)
                )
              )
              (post_layer_norm): LayerNorm((512,), eps=1e-05, elementwise_affine=True)
            )
            (layer_norm): T5LayerNorm()
            (dropout): Dropout(p=0.1, inplace=False)
          )
        )
      )
      (5): T5Block(
        (layer): ModuleList(
          (0): T5LayerSelfAttention(
            (SelfAttention): T5Attention(
              (q): Linear(in_features=512, out_features=512, bias=False)
              (k): Linear(in_features=512, out_features=512, bias=False)
              (v): Linear(in_features=512, out_features=512, bias=False)
              (o): Linear(in_features=512, out_features=512, bias=False)
            )
            (adapter_controller): AdapterController(
              (adapters): ModuleDict(
                (onestop_parallel_sentence_adv_int): Adapter(
                  (activation): Activations()
                  (down_sampler): Linear(in_features=512, out_features=16, bias=True)
                  (up_sampler): Linear(in_features=16, out_features=512, bias=True)
                )
                (onestop_parallel_sentence_adv_ele): Adapter(
                  (activation): Activations()
                  (down_sampler): Linear(in_features=512, out_features=16, bias=True)
                  (up_sampler): Linear(in_features=16, out_features=512, bias=True)
                )
                (onestop_parallel_sentence_ele_int): Adapter(
                  (activation): Activations()
                  (down_sampler): Linear(in_features=512, out_features=16, bias=True)
                  (up_sampler): Linear(in_features=16, out_features=512, bias=True)
                )
                (onestop_parallel_sentence_ele_adv): Adapter(
                  (activation): Activations()
                  (down_sampler): Linear(in_features=512, out_features=16, bias=True)
                  (up_sampler): Linear(in_features=16, out_features=512, bias=True)
                )
                (onestop_parallel_sentence_int_adv): Adapter(
                  (activation): Activations()
                  (down_sampler): Linear(in_features=512, out_features=16, bias=True)
                  (up_sampler): Linear(in_features=16, out_features=512, bias=True)
                )
                (onestop_parallel_sentence_int_ele): Adapter(
                  (activation): Activations()
                  (down_sampler): Linear(in_features=512, out_features=16, bias=True)
                  (up_sampler): Linear(in_features=16, out_features=512, bias=True)
                )
              )
              (post_layer_norm): LayerNorm((512,), eps=1e-05, elementwise_affine=True)
            )
            (layer_norm): T5LayerNorm()
            (dropout): Dropout(p=0.1, inplace=False)
          )
          (1): T5LayerFF(
            (DenseReluDense): T5DenseReluDense(
              (wi): Linear(in_features=512, out_features=2048, bias=False)
              (wo): Linear(in_features=2048, out_features=512, bias=False)
              (dropout): Dropout(p=0.1, inplace=False)
            )
            (adapter_controller): AdapterController(
              (adapters): ModuleDict(
                (onestop_parallel_sentence_adv_int): Adapter(
                  (activation): Activations()
                  (down_sampler): Linear(in_features=512, out_features=16, bias=True)
                  (up_sampler): Linear(in_features=16, out_features=512, bias=True)
                )
                (onestop_parallel_sentence_adv_ele): Adapter(
                  (activation): Activations()
                  (down_sampler): Linear(in_features=512, out_features=16, bias=True)
                  (up_sampler): Linear(in_features=16, out_features=512, bias=True)
                )
                (onestop_parallel_sentence_ele_int): Adapter(
                  (activation): Activations()
                  (down_sampler): Linear(in_features=512, out_features=16, bias=True)
                  (up_sampler): Linear(in_features=16, out_features=512, bias=True)
                )
                (onestop_parallel_sentence_ele_adv): Adapter(
                  (activation): Activations()
                  (down_sampler): Linear(in_features=512, out_features=16, bias=True)
                  (up_sampler): Linear(in_features=16, out_features=512, bias=True)
                )
                (onestop_parallel_sentence_int_adv): Adapter(
                  (activation): Activations()
                  (down_sampler): Linear(in_features=512, out_features=16, bias=True)
                  (up_sampler): Linear(in_features=16, out_features=512, bias=True)
                )
                (onestop_parallel_sentence_int_ele): Adapter(
                  (activation): Activations()
                  (down_sampler): Linear(in_features=512, out_features=16, bias=True)
                  (up_sampler): Linear(in_features=16, out_features=512, bias=True)
                )
              )
              (post_layer_norm): LayerNorm((512,), eps=1e-05, elementwise_affine=True)
            )
            (layer_norm): T5LayerNorm()
            (dropout): Dropout(p=0.1, inplace=False)
          )
        )
      )
    )
    (final_layer_norm): T5LayerNorm()
    (dropout): Dropout(p=0.1, inplace=False)
  )
  (decoder): T5Stack(
    (embed_tokens): Embedding(32128, 512)
    (block): ModuleList(
      (0): T5Block(
        (layer): ModuleList(
          (0): T5LayerSelfAttention(
            (SelfAttention): T5Attention(
              (q): Linear(in_features=512, out_features=512, bias=False)
              (k): Linear(in_features=512, out_features=512, bias=False)
              (v): Linear(in_features=512, out_features=512, bias=False)
              (o): Linear(in_features=512, out_features=512, bias=False)
              (relative_attention_bias): Embedding(32, 8)
            )
            (adapter_controller): AdapterController(
              (adapters): ModuleDict(
                (onestop_parallel_sentence_adv_int): Adapter(
                  (activation): Activations()
                  (down_sampler): Linear(in_features=512, out_features=16, bias=True)
                  (up_sampler): Linear(in_features=16, out_features=512, bias=True)
                )
                (onestop_parallel_sentence_adv_ele): Adapter(
                  (activation): Activations()
                  (down_sampler): Linear(in_features=512, out_features=16, bias=True)
                  (up_sampler): Linear(in_features=16, out_features=512, bias=True)
                )
                (onestop_parallel_sentence_ele_int): Adapter(
                  (activation): Activations()
                  (down_sampler): Linear(in_features=512, out_features=16, bias=True)
                  (up_sampler): Linear(in_features=16, out_features=512, bias=True)
                )
                (onestop_parallel_sentence_ele_adv): Adapter(
                  (activation): Activations()
                  (down_sampler): Linear(in_features=512, out_features=16, bias=True)
                  (up_sampler): Linear(in_features=16, out_features=512, bias=True)
                )
                (onestop_parallel_sentence_int_adv): Adapter(
                  (activation): Activations()
                  (down_sampler): Linear(in_features=512, out_features=16, bias=True)
                  (up_sampler): Linear(in_features=16, out_features=512, bias=True)
                )
                (onestop_parallel_sentence_int_ele): Adapter(
                  (activation): Activations()
                  (down_sampler): Linear(in_features=512, out_features=16, bias=True)
                  (up_sampler): Linear(in_features=16, out_features=512, bias=True)
                )
              )
              (post_layer_norm): LayerNorm((512,), eps=1e-05, elementwise_affine=True)
            )
            (layer_norm): T5LayerNorm()
            (dropout): Dropout(p=0.1, inplace=False)
          )
          (1): T5LayerCrossAttention(
            (EncDecAttention): T5Attention(
              (q): Linear(in_features=512, out_features=512, bias=False)
              (k): Linear(in_features=512, out_features=512, bias=False)
              (v): Linear(in_features=512, out_features=512, bias=False)
              (o): Linear(in_features=512, out_features=512, bias=False)
              (relative_attention_bias): Embedding(32, 8)
            )
            (layer_norm): T5LayerNorm()
            (dropout): Dropout(p=0.1, inplace=False)
          )
          (2): T5LayerFF(
            (DenseReluDense): T5DenseReluDense(
              (wi): Linear(in_features=512, out_features=2048, bias=False)
              (wo): Linear(in_features=2048, out_features=512, bias=False)
              (dropout): Dropout(p=0.1, inplace=False)
            )
            (adapter_controller): AdapterController(
              (adapters): ModuleDict(
                (onestop_parallel_sentence_adv_int): Adapter(
                  (activation): Activations()
                  (down_sampler): Linear(in_features=512, out_features=16, bias=True)
                  (up_sampler): Linear(in_features=16, out_features=512, bias=True)
                )
                (onestop_parallel_sentence_adv_ele): Adapter(
                  (activation): Activations()
                  (down_sampler): Linear(in_features=512, out_features=16, bias=True)
                  (up_sampler): Linear(in_features=16, out_features=512, bias=True)
                )
                (onestop_parallel_sentence_ele_int): Adapter(
                  (activation): Activations()
                  (down_sampler): Linear(in_features=512, out_features=16, bias=True)
                  (up_sampler): Linear(in_features=16, out_features=512, bias=True)
                )
                (onestop_parallel_sentence_ele_adv): Adapter(
                  (activation): Activations()
                  (down_sampler): Linear(in_features=512, out_features=16, bias=True)
                  (up_sampler): Linear(in_features=16, out_features=512, bias=True)
                )
                (onestop_parallel_sentence_int_adv): Adapter(
                  (activation): Activations()
                  (down_sampler): Linear(in_features=512, out_features=16, bias=True)
                  (up_sampler): Linear(in_features=16, out_features=512, bias=True)
                )
                (onestop_parallel_sentence_int_ele): Adapter(
                  (activation): Activations()
                  (down_sampler): Linear(in_features=512, out_features=16, bias=True)
                  (up_sampler): Linear(in_features=16, out_features=512, bias=True)
                )
              )
              (post_layer_norm): LayerNorm((512,), eps=1e-05, elementwise_affine=True)
            )
            (layer_norm): T5LayerNorm()
            (dropout): Dropout(p=0.1, inplace=False)
          )
        )
      )
      (1): T5Block(
        (layer): ModuleList(
          (0): T5LayerSelfAttention(
            (SelfAttention): T5Attention(
              (q): Linear(in_features=512, out_features=512, bias=False)
              (k): Linear(in_features=512, out_features=512, bias=False)
              (v): Linear(in_features=512, out_features=512, bias=False)
              (o): Linear(in_features=512, out_features=512, bias=False)
            )
            (adapter_controller): AdapterController(
              (adapters): ModuleDict(
                (onestop_parallel_sentence_adv_int): Adapter(
                  (activation): Activations()
                  (down_sampler): Linear(in_features=512, out_features=16, bias=True)
                  (up_sampler): Linear(in_features=16, out_features=512, bias=True)
                )
                (onestop_parallel_sentence_adv_ele): Adapter(
                  (activation): Activations()
                  (down_sampler): Linear(in_features=512, out_features=16, bias=True)
                  (up_sampler): Linear(in_features=16, out_features=512, bias=True)
                )
                (onestop_parallel_sentence_ele_int): Adapter(
                  (activation): Activations()
                  (down_sampler): Linear(in_features=512, out_features=16, bias=True)
                  (up_sampler): Linear(in_features=16, out_features=512, bias=True)
                )
                (onestop_parallel_sentence_ele_adv): Adapter(
                  (activation): Activations()
                  (down_sampler): Linear(in_features=512, out_features=16, bias=True)
                  (up_sampler): Linear(in_features=16, out_features=512, bias=True)
                )
                (onestop_parallel_sentence_int_adv): Adapter(
                  (activation): Activations()
                  (down_sampler): Linear(in_features=512, out_features=16, bias=True)
                  (up_sampler): Linear(in_features=16, out_features=512, bias=True)
                )
                (onestop_parallel_sentence_int_ele): Adapter(
                  (activation): Activations()
                  (down_sampler): Linear(in_features=512, out_features=16, bias=True)
                  (up_sampler): Linear(in_features=16, out_features=512, bias=True)
                )
              )
              (post_layer_norm): LayerNorm((512,), eps=1e-05, elementwise_affine=True)
            )
            (layer_norm): T5LayerNorm()
            (dropout): Dropout(p=0.1, inplace=False)
          )
          (1): T5LayerCrossAttention(
            (EncDecAttention): T5Attention(
              (q): Linear(in_features=512, out_features=512, bias=False)
              (k): Linear(in_features=512, out_features=512, bias=False)
              (v): Linear(in_features=512, out_features=512, bias=False)
              (o): Linear(in_features=512, out_features=512, bias=False)
            )
            (layer_norm): T5LayerNorm()
            (dropout): Dropout(p=0.1, inplace=False)
          )
          (2): T5LayerFF(
            (DenseReluDense): T5DenseReluDense(
              (wi): Linear(in_features=512, out_features=2048, bias=False)
              (wo): Linear(in_features=2048, out_features=512, bias=False)
              (dropout): Dropout(p=0.1, inplace=False)
            )
            (adapter_controller): AdapterController(
              (adapters): ModuleDict(
                (onestop_parallel_sentence_adv_int): Adapter(
                  (activation): Activations()
                  (down_sampler): Linear(in_features=512, out_features=16, bias=True)
                  (up_sampler): Linear(in_features=16, out_features=512, bias=True)
                )
                (onestop_parallel_sentence_adv_ele): Adapter(
                  (activation): Activations()
                  (down_sampler): Linear(in_features=512, out_features=16, bias=True)
                  (up_sampler): Linear(in_features=16, out_features=512, bias=True)
                )
                (onestop_parallel_sentence_ele_int): Adapter(
                  (activation): Activations()
                  (down_sampler): Linear(in_features=512, out_features=16, bias=True)
                  (up_sampler): Linear(in_features=16, out_features=512, bias=True)
                )
                (onestop_parallel_sentence_ele_adv): Adapter(
                  (activation): Activations()
                  (down_sampler): Linear(in_features=512, out_features=16, bias=True)
                  (up_sampler): Linear(in_features=16, out_features=512, bias=True)
                )
                (onestop_parallel_sentence_int_adv): Adapter(
                  (activation): Activations()
                  (down_sampler): Linear(in_features=512, out_features=16, bias=True)
                  (up_sampler): Linear(in_features=16, out_features=512, bias=True)
                )
                (onestop_parallel_sentence_int_ele): Adapter(
                  (activation): Activations()
                  (down_sampler): Linear(in_features=512, out_features=16, bias=True)
                  (up_sampler): Linear(in_features=16, out_features=512, bias=True)
                )
              )
              (post_layer_norm): LayerNorm((512,), eps=1e-05, elementwise_affine=True)
            )
            (layer_norm): T5LayerNorm()
            (dropout): Dropout(p=0.1, inplace=False)
          )
        )
      )
      (2): T5Block(
        (layer): ModuleList(
          (0): T5LayerSelfAttention(
            (SelfAttention): T5Attention(
              (q): Linear(in_features=512, out_features=512, bias=False)
              (k): Linear(in_features=512, out_features=512, bias=False)
              (v): Linear(in_features=512, out_features=512, bias=False)
              (o): Linear(in_features=512, out_features=512, bias=False)
            )
            (adapter_controller): AdapterController(
              (adapters): ModuleDict(
                (onestop_parallel_sentence_adv_int): Adapter(
                  (activation): Activations()
                  (down_sampler): Linear(in_features=512, out_features=16, bias=True)
                  (up_sampler): Linear(in_features=16, out_features=512, bias=True)
                )
                (onestop_parallel_sentence_adv_ele): Adapter(
                  (activation): Activations()
                  (down_sampler): Linear(in_features=512, out_features=16, bias=True)
                  (up_sampler): Linear(in_features=16, out_features=512, bias=True)
                )
                (onestop_parallel_sentence_ele_int): Adapter(
                  (activation): Activations()
                  (down_sampler): Linear(in_features=512, out_features=16, bias=True)
                  (up_sampler): Linear(in_features=16, out_features=512, bias=True)
                )
                (onestop_parallel_sentence_ele_adv): Adapter(
                  (activation): Activations()
                  (down_sampler): Linear(in_features=512, out_features=16, bias=True)
                  (up_sampler): Linear(in_features=16, out_features=512, bias=True)
                )
                (onestop_parallel_sentence_int_adv): Adapter(
                  (activation): Activations()
                  (down_sampler): Linear(in_features=512, out_features=16, bias=True)
                  (up_sampler): Linear(in_features=16, out_features=512, bias=True)
                )
                (onestop_parallel_sentence_int_ele): Adapter(
                  (activation): Activations()
                  (down_sampler): Linear(in_features=512, out_features=16, bias=True)
                  (up_sampler): Linear(in_features=16, out_features=512, bias=True)
                )
              )
              (post_layer_norm): LayerNorm((512,), eps=1e-05, elementwise_affine=True)
            )
            (layer_norm): T5LayerNorm()
            (dropout): Dropout(p=0.1, inplace=False)
          )
          (1): T5LayerCrossAttention(
            (EncDecAttention): T5Attention(
              (q): Linear(in_features=512, out_features=512, bias=False)
              (k): Linear(in_features=512, out_features=512, bias=False)
              (v): Linear(in_features=512, out_features=512, bias=False)
              (o): Linear(in_features=512, out_features=512, bias=False)
            )
            (layer_norm): T5LayerNorm()
            (dropout): Dropout(p=0.1, inplace=False)
          )
          (2): T5LayerFF(
            (DenseReluDense): T5DenseReluDense(
              (wi): Linear(in_features=512, out_features=2048, bias=False)
              (wo): Linear(in_features=2048, out_features=512, bias=False)
              (dropout): Dropout(p=0.1, inplace=False)
            )
            (adapter_controller): AdapterController(
              (adapters): ModuleDict(
                (onestop_parallel_sentence_adv_int): Adapter(
                  (activation): Activations()
                  (down_sampler): Linear(in_features=512, out_features=16, bias=True)
                  (up_sampler): Linear(in_features=16, out_features=512, bias=True)
                )
                (onestop_parallel_sentence_adv_ele): Adapter(
                  (activation): Activations()
                  (down_sampler): Linear(in_features=512, out_features=16, bias=True)
                  (up_sampler): Linear(in_features=16, out_features=512, bias=True)
                )
                (onestop_parallel_sentence_ele_int): Adapter(
                  (activation): Activations()
                  (down_sampler): Linear(in_features=512, out_features=16, bias=True)
                  (up_sampler): Linear(in_features=16, out_features=512, bias=True)
                )
                (onestop_parallel_sentence_ele_adv): Adapter(
                  (activation): Activations()
                  (down_sampler): Linear(in_features=512, out_features=16, bias=True)
                  (up_sampler): Linear(in_features=16, out_features=512, bias=True)
                )
                (onestop_parallel_sentence_int_adv): Adapter(
                  (activation): Activations()
                  (down_sampler): Linear(in_features=512, out_features=16, bias=True)
                  (up_sampler): Linear(in_features=16, out_features=512, bias=True)
                )
                (onestop_parallel_sentence_int_ele): Adapter(
                  (activation): Activations()
                  (down_sampler): Linear(in_features=512, out_features=16, bias=True)
                  (up_sampler): Linear(in_features=16, out_features=512, bias=True)
                )
              )
              (post_layer_norm): LayerNorm((512,), eps=1e-05, elementwise_affine=True)
            )
            (layer_norm): T5LayerNorm()
            (dropout): Dropout(p=0.1, inplace=False)
          )
        )
      )
      (3): T5Block(
        (layer): ModuleList(
          (0): T5LayerSelfAttention(
            (SelfAttention): T5Attention(
              (q): Linear(in_features=512, out_features=512, bias=False)
              (k): Linear(in_features=512, out_features=512, bias=False)
              (v): Linear(in_features=512, out_features=512, bias=False)
              (o): Linear(in_features=512, out_features=512, bias=False)
            )
            (adapter_controller): AdapterController(
              (adapters): ModuleDict(
                (onestop_parallel_sentence_adv_int): Adapter(
                  (activation): Activations()
                  (down_sampler): Linear(in_features=512, out_features=16, bias=True)
                  (up_sampler): Linear(in_features=16, out_features=512, bias=True)
                )
                (onestop_parallel_sentence_adv_ele): Adapter(
                  (activation): Activations()
                  (down_sampler): Linear(in_features=512, out_features=16, bias=True)
                  (up_sampler): Linear(in_features=16, out_features=512, bias=True)
                )
                (onestop_parallel_sentence_ele_int): Adapter(
                  (activation): Activations()
                  (down_sampler): Linear(in_features=512, out_features=16, bias=True)
                  (up_sampler): Linear(in_features=16, out_features=512, bias=True)
                )
                (onestop_parallel_sentence_ele_adv): Adapter(
                  (activation): Activations()
                  (down_sampler): Linear(in_features=512, out_features=16, bias=True)
                  (up_sampler): Linear(in_features=16, out_features=512, bias=True)
                )
                (onestop_parallel_sentence_int_adv): Adapter(
                  (activation): Activations()
                  (down_sampler): Linear(in_features=512, out_features=16, bias=True)
                  (up_sampler): Linear(in_features=16, out_features=512, bias=True)
                )
                (onestop_parallel_sentence_int_ele): Adapter(
                  (activation): Activations()
                  (down_sampler): Linear(in_features=512, out_features=16, bias=True)
                  (up_sampler): Linear(in_features=16, out_features=512, bias=True)
                )
              )
              (post_layer_norm): LayerNorm((512,), eps=1e-05, elementwise_affine=True)
            )
            (layer_norm): T5LayerNorm()
            (dropout): Dropout(p=0.1, inplace=False)
          )
          (1): T5LayerCrossAttention(
            (EncDecAttention): T5Attention(
              (q): Linear(in_features=512, out_features=512, bias=False)
              (k): Linear(in_features=512, out_features=512, bias=False)
              (v): Linear(in_features=512, out_features=512, bias=False)
              (o): Linear(in_features=512, out_features=512, bias=False)
            )
            (layer_norm): T5LayerNorm()
            (dropout): Dropout(p=0.1, inplace=False)
          )
          (2): T5LayerFF(
            (DenseReluDense): T5DenseReluDense(
              (wi): Linear(in_features=512, out_features=2048, bias=False)
              (wo): Linear(in_features=2048, out_features=512, bias=False)
              (dropout): Dropout(p=0.1, inplace=False)
            )
            (adapter_controller): AdapterController(
              (adapters): ModuleDict(
                (onestop_parallel_sentence_adv_int): Adapter(
                  (activation): Activations()
                  (down_sampler): Linear(in_features=512, out_features=16, bias=True)
                  (up_sampler): Linear(in_features=16, out_features=512, bias=True)
                )
                (onestop_parallel_sentence_adv_ele): Adapter(
                  (activation): Activations()
                  (down_sampler): Linear(in_features=512, out_features=16, bias=True)
                  (up_sampler): Linear(in_features=16, out_features=512, bias=True)
                )
                (onestop_parallel_sentence_ele_int): Adapter(
                  (activation): Activations()
                  (down_sampler): Linear(in_features=512, out_features=16, bias=True)
                  (up_sampler): Linear(in_features=16, out_features=512, bias=True)
                )
                (onestop_parallel_sentence_ele_adv): Adapter(
                  (activation): Activations()
                  (down_sampler): Linear(in_features=512, out_features=16, bias=True)
                  (up_sampler): Linear(in_features=16, out_features=512, bias=True)
                )
                (onestop_parallel_sentence_int_adv): Adapter(
                  (activation): Activations()
                  (down_sampler): Linear(in_features=512, out_features=16, bias=True)
                  (up_sampler): Linear(in_features=16, out_features=512, bias=True)
                )
                (onestop_parallel_sentence_int_ele): Adapter(
                  (activation): Activations()
                  (down_sampler): Linear(in_features=512, out_features=16, bias=True)
                  (up_sampler): Linear(in_features=16, out_features=512, bias=True)
                )
              )
              (post_layer_norm): LayerNorm((512,), eps=1e-05, elementwise_affine=True)
            )
            (layer_norm): T5LayerNorm()
            (dropout): Dropout(p=0.1, inplace=False)
          )
        )
      )
      (4): T5Block(
        (layer): ModuleList(
          (0): T5LayerSelfAttention(
            (SelfAttention): T5Attention(
              (q): Linear(in_features=512, out_features=512, bias=False)
              (k): Linear(in_features=512, out_features=512, bias=False)
              (v): Linear(in_features=512, out_features=512, bias=False)
              (o): Linear(in_features=512, out_features=512, bias=False)
            )
            (adapter_controller): AdapterController(
              (adapters): ModuleDict(
                (onestop_parallel_sentence_adv_int): Adapter(
                  (activation): Activations()
                  (down_sampler): Linear(in_features=512, out_features=16, bias=True)
                  (up_sampler): Linear(in_features=16, out_features=512, bias=True)
                )
                (onestop_parallel_sentence_adv_ele): Adapter(
                  (activation): Activations()
                  (down_sampler): Linear(in_features=512, out_features=16, bias=True)
                  (up_sampler): Linear(in_features=16, out_features=512, bias=True)
                )
                (onestop_parallel_sentence_ele_int): Adapter(
                  (activation): Activations()
                  (down_sampler): Linear(in_features=512, out_features=16, bias=True)
                  (up_sampler): Linear(in_features=16, out_features=512, bias=True)
                )
                (onestop_parallel_sentence_ele_adv): Adapter(
                  (activation): Activations()
                  (down_sampler): Linear(in_features=512, out_features=16, bias=True)
                  (up_sampler): Linear(in_features=16, out_features=512, bias=True)
                )
                (onestop_parallel_sentence_int_adv): Adapter(
                  (activation): Activations()
                  (down_sampler): Linear(in_features=512, out_features=16, bias=True)
                  (up_sampler): Linear(in_features=16, out_features=512, bias=True)
                )
                (onestop_parallel_sentence_int_ele): Adapter(
                  (activation): Activations()
                  (down_sampler): Linear(in_features=512, out_features=16, bias=True)
                  (up_sampler): Linear(in_features=16, out_features=512, bias=True)
                )
              )
              (post_layer_norm): LayerNorm((512,), eps=1e-05, elementwise_affine=True)
            )
            (layer_norm): T5LayerNorm()
            (dropout): Dropout(p=0.1, inplace=False)
          )
          (1): T5LayerCrossAttention(
            (EncDecAttention): T5Attention(
              (q): Linear(in_features=512, out_features=512, bias=False)
              (k): Linear(in_features=512, out_features=512, bias=False)
              (v): Linear(in_features=512, out_features=512, bias=False)
              (o): Linear(in_features=512, out_features=512, bias=False)
            )
            (layer_norm): T5LayerNorm()
            (dropout): Dropout(p=0.1, inplace=False)
          )
          (2): T5LayerFF(
            (DenseReluDense): T5DenseReluDense(
              (wi): Linear(in_features=512, out_features=2048, bias=False)
              (wo): Linear(in_features=2048, out_features=512, bias=False)
              (dropout): Dropout(p=0.1, inplace=False)
            )
            (adapter_controller): AdapterController(
              (adapters): ModuleDict(
                (onestop_parallel_sentence_adv_int): Adapter(
                  (activation): Activations()
                  (down_sampler): Linear(in_features=512, out_features=16, bias=True)
                  (up_sampler): Linear(in_features=16, out_features=512, bias=True)
                )
                (onestop_parallel_sentence_adv_ele): Adapter(
                  (activation): Activations()
                  (down_sampler): Linear(in_features=512, out_features=16, bias=True)
                  (up_sampler): Linear(in_features=16, out_features=512, bias=True)
                )
                (onestop_parallel_sentence_ele_int): Adapter(
                  (activation): Activations()
                  (down_sampler): Linear(in_features=512, out_features=16, bias=True)
                  (up_sampler): Linear(in_features=16, out_features=512, bias=True)
                )
                (onestop_parallel_sentence_ele_adv): Adapter(
                  (activation): Activations()
                  (down_sampler): Linear(in_features=512, out_features=16, bias=True)
                  (up_sampler): Linear(in_features=16, out_features=512, bias=True)
                )
                (onestop_parallel_sentence_int_adv): Adapter(
                  (activation): Activations()
                  (down_sampler): Linear(in_features=512, out_features=16, bias=True)
                  (up_sampler): Linear(in_features=16, out_features=512, bias=True)
                )
                (onestop_parallel_sentence_int_ele): Adapter(
                  (activation): Activations()
                  (down_sampler): Linear(in_features=512, out_features=16, bias=True)
                  (up_sampler): Linear(in_features=16, out_features=512, bias=True)
                )
              )
              (post_layer_norm): LayerNorm((512,), eps=1e-05, elementwise_affine=True)
            )
            (layer_norm): T5LayerNorm()
            (dropout): Dropout(p=0.1, inplace=False)
          )
        )
      )
      (5): T5Block(
        (layer): ModuleList(
          (0): T5LayerSelfAttention(
            (SelfAttention): T5Attention(
              (q): Linear(in_features=512, out_features=512, bias=False)
              (k): Linear(in_features=512, out_features=512, bias=False)
              (v): Linear(in_features=512, out_features=512, bias=False)
              (o): Linear(in_features=512, out_features=512, bias=False)
            )
            (adapter_controller): AdapterController(
              (adapters): ModuleDict(
                (onestop_parallel_sentence_adv_int): Adapter(
                  (activation): Activations()
                  (down_sampler): Linear(in_features=512, out_features=16, bias=True)
                  (up_sampler): Linear(in_features=16, out_features=512, bias=True)
                )
                (onestop_parallel_sentence_adv_ele): Adapter(
                  (activation): Activations()
                  (down_sampler): Linear(in_features=512, out_features=16, bias=True)
                  (up_sampler): Linear(in_features=16, out_features=512, bias=True)
                )
                (onestop_parallel_sentence_ele_int): Adapter(
                  (activation): Activations()
                  (down_sampler): Linear(in_features=512, out_features=16, bias=True)
                  (up_sampler): Linear(in_features=16, out_features=512, bias=True)
                )
                (onestop_parallel_sentence_ele_adv): Adapter(
                  (activation): Activations()
                  (down_sampler): Linear(in_features=512, out_features=16, bias=True)
                  (up_sampler): Linear(in_features=16, out_features=512, bias=True)
                )
                (onestop_parallel_sentence_int_adv): Adapter(
                  (activation): Activations()
                  (down_sampler): Linear(in_features=512, out_features=16, bias=True)
                  (up_sampler): Linear(in_features=16, out_features=512, bias=True)
                )
                (onestop_parallel_sentence_int_ele): Adapter(
                  (activation): Activations()
                  (down_sampler): Linear(in_features=512, out_features=16, bias=True)
                  (up_sampler): Linear(in_features=16, out_features=512, bias=True)
                )
              )
              (post_layer_norm): LayerNorm((512,), eps=1e-05, elementwise_affine=True)
            )
            (layer_norm): T5LayerNorm()
            (dropout): Dropout(p=0.1, inplace=False)
          )
          (1): T5LayerCrossAttention(
            (EncDecAttention): T5Attention(
              (q): Linear(in_features=512, out_features=512, bias=False)
              (k): Linear(in_features=512, out_features=512, bias=False)
              (v): Linear(in_features=512, out_features=512, bias=False)
              (o): Linear(in_features=512, out_features=512, bias=False)
            )
            (layer_norm): T5LayerNorm()
            (dropout): Dropout(p=0.1, inplace=False)
          )
          (2): T5LayerFF(
            (DenseReluDense): T5DenseReluDense(
              (wi): Linear(in_features=512, out_features=2048, bias=False)
              (wo): Linear(in_features=2048, out_features=512, bias=False)
              (dropout): Dropout(p=0.1, inplace=False)
            )
            (adapter_controller): AdapterController(
              (adapters): ModuleDict(
                (onestop_parallel_sentence_adv_int): Adapter(
                  (activation): Activations()
                  (down_sampler): Linear(in_features=512, out_features=16, bias=True)
                  (up_sampler): Linear(in_features=16, out_features=512, bias=True)
                )
                (onestop_parallel_sentence_adv_ele): Adapter(
                  (activation): Activations()
                  (down_sampler): Linear(in_features=512, out_features=16, bias=True)
                  (up_sampler): Linear(in_features=16, out_features=512, bias=True)
                )
                (onestop_parallel_sentence_ele_int): Adapter(
                  (activation): Activations()
                  (down_sampler): Linear(in_features=512, out_features=16, bias=True)
                  (up_sampler): Linear(in_features=16, out_features=512, bias=True)
                )
                (onestop_parallel_sentence_ele_adv): Adapter(
                  (activation): Activations()
                  (down_sampler): Linear(in_features=512, out_features=16, bias=True)
                  (up_sampler): Linear(in_features=16, out_features=512, bias=True)
                )
                (onestop_parallel_sentence_int_adv): Adapter(
                  (activation): Activations()
                  (down_sampler): Linear(in_features=512, out_features=16, bias=True)
                  (up_sampler): Linear(in_features=16, out_features=512, bias=True)
                )
                (onestop_parallel_sentence_int_ele): Adapter(
                  (activation): Activations()
                  (down_sampler): Linear(in_features=512, out_features=16, bias=True)
                  (up_sampler): Linear(in_features=16, out_features=512, bias=True)
                )
              )
              (post_layer_norm): LayerNorm((512,), eps=1e-05, elementwise_affine=True)
            )
            (layer_norm): T5LayerNorm()
            (dropout): Dropout(p=0.1, inplace=False)
          )
        )
      )
    )
    (final_layer_norm): T5LayerNorm()
    (dropout): Dropout(p=0.1, inplace=False)
  )
  (lm_head): Linear(in_features=512, out_features=32128, bias=False)
)
06/08/2023 20:40:37 - INFO - __main__ -   config (type: <class 'third_party.models.configuration_t5.T5Config'>) :
06/08/2023 20:40:37 - INFO - __main__ -   T5Config {
  "_name_or_path": "t5-small",
  "architectures": [
    "T5ForConditionalGeneration"
  ],
  "d_ff": 2048,
  "d_kv": 64,
  "d_model": 512,
  "decoder_start_token_id": 0,
  "dropout_rate": 0.1,
…
